model/word2vec_model_glove.pth (torch, 101880 bytes, 4 tensors)

center_embedding.weight f4 [4153, 2]
0	0x3f51da12	0.81973374
1	0x3eb7c537	0.3589265
2	0x3e988ead	0.29796353
3	0x3eb39935	0.35077825
4	0x3fb76b97	1.4329709
5	0x3e949c08	0.29025292
6	0xbf8b9f83	-1.0908054
7	0xbd7c0694	-0.06152971
8	0x3fcfd6fb	1.6237482
9	0xbdcd7267	-0.10031586
10	0xbeef5c12	-0.46749932
11	0xbea89200	-0.3292389
12	0x3f579218	0.84207296
13	0xbe158ef1	-0.14605309
14	0xbe892ed1	-0.2679353
15	0x3ebf0277	0.37306568
16	0x3f7d21bc	0.988796
17	0x3d249ea8	0.04019037
18	0xbe5c20ce	-0.21496889
19	0x3f917d32	1.1366332
20	0xbd9189fb	-0.07106396
21	0xbf4a4cfb	-0.7902371
22	0xbfce81cd	-1.6133362
23	0xbf446a1a	-0.767244
24	0x3f0114ba	0.5042225
25	0xbf7b7dee	-0.9823903
26	0x3f89a3ed	1.0753151
27	0x3d556a4f	0.052103337
28	0x3f9fa51c	1.2472262
29	0xbda4f9e0	-0.080554724
30	0x3d323706	0.043509506
31	0xbe987dda	-0.29783517
32	0xbfba3718	-1.4548063
33	0x3faf961f	1.3717688
34	0xbe280b99	-0.16410674
35	0xbf671b4f	-0.90276045
36	0xc01c4ccc	-2.4421873
37	0xbea3794f	-0.3192849
38	0xbd85d976	-0.06535618
39	0x3f63f991	0.89052683
40	0xbdaaa404	-0.08332065
41	0xbefbef13	-0.49205837
42	0x3d2d7b23	0.04235376
43	0x3faa1a00	1.3289185
44	0xbf8e1e88	-1.1103067
45	0xbf6e2b35	-0.9303468
46	0xbf1037c6	-0.56335104
47	0xbf49d4ba	-0.7884022
48	0x3e977bf5	0.2958676
49	0x3f85d61e	1.0455968
50	0x3e3f5d71	0.18687989
51	0xbf13b9c3	-0.57705325
52	0x3fe7469f	1.8068427
53	0x3dda65f6	0.10663979
54	0x3fb7a53d	1.4347302
55	0xbf926bc7	-1.1439141
56	0x3ed734ca	0.42032462
57	0x3f2d2d93	0.67647666
58	0xbe4bb90e	-0.19894812
59	0x3fa268b0	1.2688198
60	0x3e69b176	0.22821602
61	0xbf9aa309	-1.2081004
62	0x3f0fd283	0.5618059
63	0x3f7bb139	0.98317295
64	0xbf90f24f	-1.1323947
65	0x3e99b38b	0.30019793
66	0x3df681a9	0.120364495
67	0xbf1b1d3d	-0.6059149
68	0xbf4a0469	-0.7891298
69	0xbf4d206a	-0.80127585
70	0x3ee48434	0.44632113
71	0x3ee9fa09	0.45698574
72	0x3f795d63	0.9740812
73	0xbf3fe624	-0.7496054
74	0x3f88d295	1.0689265
75	0x3ebca804	0.36846936
76	0x3e6a6a98	0.22892225
77	0x3eae19dd	0.34004107
78	0xbeb97913	-0.36225185
79	0x3f7bc44a	0.9834639
80	0xbfb0e0ea	-1.3818638
81	0x3ebbed6c	0.36704576
82	0x3edb8396	0.4287383
83	0xc00a6fb7	-2.1630685
84	0x3f958183	1.1680149
85	0xbf6b5f2d	-0.919421
86	0x3f5b796e	0.8573216
87	0x3f2d925c	0.6780145
88	0x3ee10e5c	0.43956268
89	0x3f30a6c5	0.6900447
90	0x3f9c14db	1.2193865
91	0x3f0dc7f0	0.55383205
92	0xbf060f1a	-0.52366793
93	0xbf5e5bcd	-0.86858827
94	0x3f943ec6	1.1581657
95	0x3fc1d4d8	1.514308
96	0x3ff52c87	1.9154214
97	0xbf97865a	-1.1837876
98	0x3fb850c3	1.4399647
99	0xbf55236c	-0.83257174
100	0xbfa3704f	-1.2768649
101	0xbfa329c5	-1.2747122
102	0x3f53ae3c	0.82687736
103	0x3f457a34	0.7713959
104	0x3fd91554	1.6959634
105	0xbe904f60	-0.28185558
106	0x3f6e3d98	0.93062735
107	0x3e50a069	0.20373692
108	0x3e142ef6	0.14471039
109	0xbfd909ff	-1.6956176
110	0xbf53f3f1	-0.827941
111	0xbf838f4c	-1.0278106
112	0x3f3fa868	0.7486634
113	0x403401fb	2.8126209
114	0xbd4929ee	-0.049112253
115	0xbf9b2e46	-1.2123497
116	0x3da7bdc3	0.08190491
117	0x3f1537a4	0.58288026
118	0x3f48bb71	0.7841101
119	0xbf418caa	-0.7560526
120	0xbea1796f	-0.3153796
121	0x3fe21531	1.7662717
122	0xbfa7c7f8	-1.3107901
123	0xbf425ef0	-0.75926113
124	0x3e9a4b6a	0.3013566
125	0xbf94cccb	-1.1624998
126	0xbf8b1c39	-1.0867988
127	0xbe939510	-0.28824663
128	0x3ecec881	0.40387347
129	0xbd8b53b5	-0.06803075
130	0xbf19a40c	-0.6001594
131	0x3f850256	1.0391338
132	0xbf16095b	-0.58608025
133	0x3f623998	0.8836913
134	0xbe845224	-0.25843918
135	0xbf698ba9	-0.9122873
136	0x3f156954	0.5836384
137	0xbf911461	-1.1334344
138	0x3c98759f	0.018610774
139	0x3f50806e	0.8144597
140	0x3e08d9f4	0.13364393
141	0xc00d9a94	-2.2125597
142	0x3f043965	0.5165008
143	0x3f2fd241	0.68680197
144	0x3f6e3b49	0.9305921
145	0x3e576265	0.21033628
146	0xbf1b63f1	-0.60699373
147	0xbf65924a	-0.89676344
148	0xbf03949b	-0.5139863
149	0xbf595825	-0.8490012
150	0xbee646ae	-0.449758
151	0x3f37adbb	0.71749467
152	0xbe727839	-0.23678674
153	0xbfb7c33d	-1.4356457
154	0x3f9a5b54	1.2059121
155	0xbebfa3dd	-0.37429705
156	0xbea4f4b8	-0.32217956
157	0xbfb22b39	-1.391944
158	0xbf72a38e	-0.94780815
159	0x3f2c0059	0.6718803
160	0x3f45efe8	0.7731919
161	0x3f9f5f18	1.2450895
162	0xbf09a4ac	-0.53766894
163	0x3ddec8c0	0.10878134
164	0x40047942	2.069901
165	0xbfa2da0b	-1.2722791
166	0x3f96a6c6	1.1769645
167	0xbfabb977	-1.3415974
168	0x3fd9c4de	1.7013204
169	0x3da1847a	0.07886596
170	0x3f6e4fb1	0.9309035
171	0x3e67aafc	0.22623819
172	0x4010bbdd	2.2614663
173	0x3fae528b	1.361894
174	0xbff01844	-1.8757405
175	0xbf999449	-1.1998378
176	0xbe07b57e	-0.13252828
177	0xbf0362a0	-0.51322365
178	0xbf1b29a7	-0.6061043
179	0xbfb39e9c	-1.4032779
180	0xc00a3ac6	-2.1598372
181	0xbf1794ae	-0.5921124
182	0xbec94de3	-0.39317235
183	0x3f9076bd	1.1286236
184	0x3f9a6922	1.2063334
185	0xbfb3c4c2	-1.4044421
186	0x3984163b	0.00025193565
187	0xbf90cc4e	-1.1312349
188	0x3e8d2bfc	0.2757262
189	0x3e12d5c0	0.14339352
190	0x3f26f179	0.6521221
191	0xbf515e85	-0.8178485
192	0xbed3c3c5	-0.41360298
193	0xbeaf2ae6	-0.34212416
194	0x3f7d3522	0.989092
195	0x3d9d3560	0.07676196
196	0xbe67309f	-0.22577141
197	0x3f84a136	1.0361698
198	0xbf5156d9	-0.81773144
199	0xbfb8de6f	-1.4442881
200	0xbfa413b4	-1.2818513
201	0x3ee3f86d	0.4452547
202	0xbec13df5	-0.37742582
203	0xbfb9945d	-1.4498402
204	0xbf66bba7	-0.90130085
205	0x3f2d6f2e	0.6774777
206	0xbe6c977f	-0.23104666
207	0xbf2dd032	-0.67895806
208	0x3e32817d	0.17432208
209	0xbf0b3521	-0.54377943
210	0x3ee34454	0.44388068
211	0x3ea56b0b	0.3230823
212	0xbf922092	-1.141619
213	0x3e8424ce	0.2580933
214	0x3e87d9d7	0.26533386
215	0x3ccaf77a	0.02477621
216	0x3f15d7c2	0.58532345
217	0xbfbe9e9e	-1.4892156
218	0x3edb827f	0.42872998
219	0x3eca0299	0.39455107
220	0xbf2f8f0d	-0.68577653
221	0xc012d4ff	-2.2942502
222	0xbff445b0	-1.9083767
223	0xbe843f1d	-0.25829402
224	0x3f245e30	0.6420622
225	0x3f9d0ba7	1.2269181
226	0x3f914024	1.1347699
227	0xbebf6898	-0.37384486
228	0x3e4ad372	0.19807222
229	0x3e7fd84f	0.24984859
230	0xbfb9fa06	-1.4529426
231	0xbebc8fe9	-0.36828545
232	0x3d027349	0.031848226
233	0xbfa63469	-1.2984744
234	0xbd83b71e	-0.06431411
235	0x3ecefa67	0.40425417
236	0xbdef902e	-0.11697422
237	0xbea48599	-0.32133177
238	0xbf8dc444	-1.107552
239	0x3f3dc6fe	0.74131763
240	0x3f83999f	1.0281256
241	0x3f46f39d	0.77715474
242	0xbd9649fb	-0.073383294
243	0xbe47a369	-0.1949593
244	0x3f52dcbf	0.8236808
245	0x3f2d758e	0.677575
246	0x3dca020f	0.09863674
247	0xbe1ff98f	-0.15622543
248	0x3eaf0f0a	0.3419116
249	0x3eeda456	0.4641444
250	0x3c516eb0	0.012782738
251	0x3eac8782	0.33697134
252	0xbfa5a488	-1.2940836
253	0xbef388f9	-0.4756544
254	0x3d9356d9	0.07194299
255	0xbfd34f03	-1.6508487

outside_embedding.weight f4 [4153, 2]
0	0xbedac55a	-0.42728692
1	0xbdf1a6c0	-0.11799383
2	0x3dcaf69f	0.099103205
3	0xbfa8dae3	-1.3191799
4	0xbf9c735a	-1.2222703
5	0x3fa21b8c	1.2664657
6	0x3f766ca1	0.96259505
7	0x3ee3b922	0.44477183
8	0xbfb45b77	-1.4090413
9	0x3ff67b31	1.9256345
10	0x3f1124da	0.56696856
11	0x3f0aa357	0.54155487
12	0xbeedf26e	-0.46474022
13	0xbfa64f20	-1.2992897
14	0x3fb5abff	1.4193114
15	0x3f63b806	0.8895267
16	0x3fa12838	1.2590399
17	0x3f0d88a6	0.55286634
18	0x3fd22846	1.641854
19	0xbf6081ac	-0.87697864
20	0x3e6c4ac6	0.23075399
21	0x3d8d35dc	0.068950385
22	0xbf873b46	-1.0564964
23	0x3f46cc48	0.7765546
24	0x3f7d82b6	0.99027574
25	0x3e23a326	0.15980205
26	0xc0193ff0	-2.3945274
27	0x3ea3d8a5	0.32001224
28	0x3f46b645	0.7762187
29	0xbd821421	-0.063514955
30	0x3f88cdea	1.068784
31	0xbf7fbc34	-0.9989655
32	0xbfa85a43	-1.3152546
33	0x3f04442d	0.5166653
34	0x3ed4ea6a	0.41585094
35	0xbfc7f79a	-1.5622437
36	0x3f51b69d	0.8191927
37	0xbeecf193	-0.46278057
38	0xbe12ad48	-0.14323914
39	0x3fb1dc94	1.389544
40	0x3eb0b180	0.34510422
41	0xc005e69b	-2.0922
42	0xbfb38231	-1.4024106
43	0x3e477175	0.19476874
44	0xbf215eac	-0.6303508
45	0xbfb330f0	-1.399931
46	0x3fa741a5	1.3066908
47	0x3c8acd23	0.01694352
48	0x3f85d44d	1.0455414
49	0xbf0c8ce7	-0.549025
50	0x3f506802	0.81408703
51	0xbf6ffa44	-0.9374125
52	0xbf83db78	-1.0301352
53	0x3edee8b2	0.43536907
54	0x3f57ce53	0.842992
55	0xbf11a07f	-0.5688552
56	0xbf3242a0	-0.6963291
57	0xbf5174d1	-0.8181887
58	0x3f955432	1.1666319
59	0x3f7252a8	0.94657373
60	0x3e450f6f	0.19244169
61	0x3fe68fc1	1.801262
62	0xbeff438d	-0.49856225
63	0x3f0c112e	0.54713714
64	0xbec2115d	-0.37903872
65	0xbf360acf	-0.7111024
66	0x3f0e85c7	0.5567288
67	0xbf92f118	-1.1479826
68	0x3d84aa35	0.06477777
69	0x3f289d03	0.6586458
70	0xbd1da2b1	-0.038485233
71	0x3e9990b7	0.2999322
72	0x3e4a9021	0.19781543
73	0x3f423110	0.75856113
74	0x3eaf40e8	0.34229207
75	0xbdfc9d72	-0.12334718
76	0x3dbdf9d2	0.09276165
77	0xbf6e6702	-0.9312593
78	0xbeeacfe8	-0.45861745
79	0xbf67bc9c	-0.9052217
80	0xbf058408	-0.5215459
81	0xbefb7db8	-0.49119353
82	0x3f2fea33	0.68716735
83	0x3ecbde31	0.39817956
84	0xbe1e1111	-0.15436198
85	0x3f87a572	1.0597365
86	0x3db78235	0.08960382
87	0x3fe48e39	1.7855903
88	0xbfc54c13	-1.5413841
89	0xbf6368d7	-0.8883185
90	0xbf3ee699	-0.74570614
91	0x3f524413	0.82135123
92	0xbeaf4f00	-0.3423996
93	0xbef87be7	-0.4853203
94	0x3ea184d4	0.31546652
95	0xbf0676cc	-0.5252502
96	0xc03ace99	-2.9188597
97	0xbf32b23c	-0.69803214
98	0x3d5dc482	0.054142483
99	0xbfa2868e	-1.2697313
100	0xbf6c20d8	-0.92237616
101	0x3ee2f670	0.44328642
102	0x3e8842d4	0.26613486
103	0x3ea34ac9	0.31892994
104	0xbe6e2485	-0.23256119
105	0xbe616054	-0.22009403
106	0x3fa1037b	1.2579187
107	0x3f9d1f93	1.2275261
108	0xbe39c634	-0.18142015
109	0x3ea5c748	0.32378602
110	0xbed87023	-0.42273054
111	0xbeb787aa	-0.3584569
112	0xbf49316b	-0.7859103
113	0x3f4aa62c	0.7915981
114	0x3ef01c78	0.4689672
115	0xbe54e465	-0.2079025
116	0x3eb22393	0.34792766
117	0x3db23b77	0.08702748
118	0x3fc57580	1.5426483
119	0xbfbb255b	-1.4620775
120	0xbfbade6f	-1.4599131
121	0x3fb6e354	1.4288125
122	0xbf2628a9	-0.6490579
123	0x3f9cff28	1.2265368
124	0xbd490f5f	-0.049086925
125	0xbdf742a5	-0.12073258
126	0x3f51d10a	0.81959593
127	0x3f3898a1	0.72107893
128	0x3d735519	0.059407327
129	0x3fc21df0	1.5165386
130	0x3ed8c8c0	0.4234066
131	0xbffc6321	-1.9717752
132	0x3cc466b5	0.023974756
133	0xbddad126	-0.10684423
134	0x3f54ca63	0.8312132
135	0xbf006c41	-0.5016518
136	0xbfd745a0	-1.6818123
137	0x4018c7b1	2.3871882
138	0xc0083d2c	-2.1287336
139	0x3ef9e746	0.4880926
140	0x3eefcc47	0.4683554
141	0x3fa0df80	1.2568207
142	0xbe9b2c89	-0.30307415
143	0xbf4ac239	-0.7920261
144	0xbf111a98	-0.56681204
145	0x4023faac	2.5621748
146	0xbe4381f8	-0.19092548
147	0xbe9248d4	-0.28571188
148	0x3f5454e5	0.8294204
149	0xbeaf58cd	-0.34247437
150	0x3e77e4ff	0.24208449
151	0xbbcec2bd	-0.0063098357
152	0x4013b7b1	2.3080866
153	0xbe6064fd	-0.21913524
154	0x3d5fd774	0.05464883
155	0x3f34be8a	0.7060324
156	0xbf007d70	-0.501914
157	0xbfbe12f8	-1.4849539
158	0x3f3f2846	0.7467083
159	0xbf6c2741	-0.92247397
160	0xbf6d9f86	-0.9282154
161	0x3f751bdb	0.9574563
162	0xbfb9af32	-1.450659
163	0xbf3d16a1	-0.73862654
164	0xbf8b97d1	-1.0905706
165	0x3f503ec6	0.81345785
166	0xbf81dcc0	-1.0145493
167	0x3f527766	0.8221344
168	0xbeb30d4a	-0.34971076
169	0x3b094ecd	0.002095151
170	0xbe1b0112	-0.15137127
171	0x3d1eefa5	0.03880276
172	0xbfb2ec77	-1.3978413
173	0x3ef301ea	0.47462398
174	0xbf34d093	-0.7063076
175	0x3f86dbab	1.0535787
176	0x3d21c39b	0.039493185
177	0xbfc96e85	-1.5736853
178	0xbe550872	-0.20804003
179	0x4000d37f	2.0129087
180	0xbfbac4e6	-1.4591339
181	0xbe6f05af	-0.23342012
182	0x40158b3d	2.3366234
183	0xbf84e19b	-1.0381349
184	0x3fa754b4	1.3072724
185	0xbf54e61f	-0.83163637
186	0x3e1c56b3	0.15267448
187	0xbf6d9a5b	-0.9281365
188	0x40339631	2.806042
189	0xbe4cc034	-0.19995195
190	0x3f95d303	1.1705021
191	0xbfbd3ffa	-1.4785149
192	0xbfcd0f61	-1.6020318
193	0xbe66c2fc	-0.22535318
194	0xbf3b572d	-0.73179895
195	0xbfd6a7b8	-1.6769934
196	0x3b8a5fa0	0.004222825
197	0x3ee954db	0.45572552
198	0xbc08517a	-0.008320207
199	0x3f49df9e	0.7885684
200	0xbdb341d6	-0.087527916
201	0xbe72db8c	-0.23716563
202	0xbfa871f2	-1.3159773
203	0x3f637587	0.8885121
204	0xbf1a256d	-0.6021336
205	0x3e9f17cd	0.31072846
206	0xbfd7f9c4	-1.6873097
207	0xbfa325ea	-1.2745945
208	0xbe8839f9	-0.2660673
209	0x3f96cd2b	1.1781362
210	0xbe2eff42	-0.1708956
211	0xbe656ef7	-0.22405611
212	0xbd8ea1aa	-0.06964429
213	0xbd85630b	-0.065130316
214	0xbf7138ed	-0.94227487
215	0x3ccd47ed	0.025058711
216	0xbf614131	-0.879901
217	0xbeb96095	-0.362065
218	0xbf8862b6	-1.0655124
219	0x3e06e7a9	0.13174309
220	0x3f3ec834	0.74524236
221	0x3eb1f121	0.3475428
222	0xbe0ac23b	-0.13550656
223	0xbf74bc6b	-0.95600003
224	0xbfd6ef4c	-1.6791778
225	0x3f5dca43	0.8663675
226	0x3f10f2c0	0.5662041
227	0x3f595c49	0.8490644
228	0xbeeb3e28	-0.4594586
229	0xbfcd83e2	-1.6055872
230	0xbfad8ec9	-1.35592
231	0x3f8fc52c	1.1232047
232	0x3e3b2594	0.18276054
233	0xbeb9f79a	-0.36321718
234	0xbec746fe	-0.3892135
235	0xc00901ca	-2.1407342
236	0x3e3ff354	0.18745166
237	0x3f158cb5	0.58417827
238	0xbfd2f873	-1.6482071
239	0x3f2488ea	0.64271414
240	0x3f02f89b	0.5116059
241	0xbea530fe	-0.3226394
242	0xbf20a2e5	-0.6274856
243	0x3d3212f1	0.043475095
244	0xbb6f8aac	-0.003655116
245	0x3eb3b162	0.3509627
246	0x3f690ef3	0.91038436
247	0xbf849bb4	-1.0360017
248	0x3f2911e1	0.66042906
249	0xbfbbed7a	-1.4681847
250	0x3fd05c55	1.6278177
251	0x3f924674	1.142775
252	0x3e8ccd03	0.27500162
253	0x3f9f4eb3	1.2445892
254	0x3f1498d0	0.58045673
255	0x3e358f20	0.17730379

center_bias.weight f4 [4153, 1]
0	0xbfbc9b0a	-1.4734814
1	0x3ebc5e3a	0.3679064
2	0xbec7402f	-0.38916156
3	0xbfc749e0	-1.556942
4	0xbe1cd952	-0.15317276
5	0xbee79db5	-0.45237508
6	0xbf1f3cff	-0.6220245
7	0x3f219162	0.6311246
8	0x3f844ff8	1.0336905
9	0xbf2ded80	-0.6794052
10	0xbeb7c2bf	-0.35890767
11	0xbe8c2717	-0.27373573
12	0x3e1ab74c	0.15108985
13	0xbf6e6ee4	-0.93137956
14	0x3f75f6b7	0.9607958
15	0x3fb4d585	1.4127661
16	0x3e8fda0b	0.2809604
17	0x3f840de6	1.0316741
18	0xbf06320d	-0.5242012
19	0xbd98a8d9	-0.0745408
20	0xbeb62255	-0.35573068
21	0xbfb2f120	-1.3979836
22	0x3f83f0ba	1.0307839
23	0x3e177597	0.1479095
24	0xbea390ac	-0.31946313
25	0xbdf72b45	-0.120688
26	0x3fb4226a	1.4073002
27	0x3e9e78da	0.30951577
28	0xbfb9c16d	-1.4512154
29	0x3e2cfd41	0.16893484
30	0x3f7b3ebe	0.9814261
31	0xbfac9f2e	-1.3486078
32	0xc03118ee	-2.7671466
33	0x3e2eff7b	0.17089646
34	0x3f72fee7	0.949202
35	0x4002774c	2.0385313
36	0xbfb2f055	-1.3979594
37	0xbfe7d81c	-1.8112826
38	0x3fbc98b2	1.4734099
39	0xbe82dcc0	-0.25559044
40	0x3fcfccca	1.6234372
41	0x40086a18	2.1314754
42	0xbfe7e391	-1.8116323
43	0x3f88a24c	1.0674529
44	0xbfa64cda	-1.2992203
45	0x3f8ceecb	1.1010374
46	0xbf1bcd97	-0.6086058
47	0xbf50c78b	-0.8155448
48	0xbf53dc84	-0.82758355
49	0xbf6eb634	-0.9324677
50	0xbd27fa48	-0.04101017
51	0xbf9de7b8	-1.233634
52	0xbf6cfb2f	-0.92570776
53	0xbf227cf0	-0.6347189
54	0x3f6abea5	0.9169715
55	0xbf9a56f5	-1.2057787
56	0xbfa18482	-1.2618563
57	0x3e62d067	0.22149812
58	0x3ca4eb24	0.020131655
59	0x3e04df89	0.12975897
60	0x3e6df095	0.23236306
61	0xbf405242	-0.75125515
62	0xbeb28c51	-0.34872678
63	0xbf12782b	-0.5721461
64	0x3f7539e2	0.9579145
65	0x3faea5c6	1.364434
66	0x3f4bc025	0.79590064
67	0xbe8e37a9	-0.2777684
68	0x3f4b9c3a	0.7953526
69	0xbd81af93	-0.06332316
70	0xc017e2c5	-2.373216
71	0xbf459f53	-0.77196234
72	0x3f5b58d7	0.85682434
73	0x3eebc971	0.46052125
74	0x3f280ce7	0.6564469
75	0x3f3ed625	0.7454551
76	0xbf8e215b	-1.1103929
77	0x3e95f787	0.2929041
78	0x3ef3417d	0.475109
79	0x3e0406d0	0.12893224
80	0x3eecf2a1	0.4627886
81	0x3ef9e9f4	0.48811305
82	0x3fb45ca9	1.4090778
83	0x3ed6396f	0.41840693
84	0x3f886c95	1.0658137
85	0xbfb8fabd	-1.4451519
86	0x3f546a59	0.82974774
87	0xbe92065c	-0.28520477
88	0x3f6f8987	0.93569225
89	0xbe8046a6	-0.250539
90	0xbf239464	-0.638983
91	0xbed9d0ec	-0.42542207
92	0x3f49d38f	0.7883844
93	0xbf079a74	-0.5297005
94	0x3f37889c	0.71692824
95	0x3f0c9176	0.54909456
96	0x3f251971	0.64491946
97	0x3fcabd21	1.5838968
98	0xbf7a02e0	-0.97660637
99	0x3fc73446	1.5562828
100	0x3f9d48a0	1.2287788
101	0xbf22115c	-0.6330774
102	0x3eefad43	0.46811876
103	0xbe9dfb50	-0.308558
104	0xbf3d7ea8	-0.7402139
105	0x3d3231c4	0.04350449
106	0xbe3715c3	-0.17879395
107	0xbf741197	-0.9533934
108	0xbf62fd12	-0.88667405
109	0xbf947cea	-1.1600621
110	0xbebc4f1f	-0.36779115
111	0xbe751e31	-0.23937298
112	0x3f949ef2	1.1611006
113	0x3e7e97a5	0.24862535
114	0xbfce095a	-1.6096604
115	0x3d00a7dc	0.031410083
116	0xbf7301fc	-0.949249
117	0x3ee1102a	0.43957645
118	0x3f05f0f4	0.5232079
119	0x3fd6ec37	1.6790837
120	0x3e3a6bd6	0.18205199
121	0x3f1c3a9a	0.6102692
122	0x3f61855d	0.8809412
123	0x3ef42080	0.47681046
124	0xbe86e485	-0.26346222
125	0x3fdbbda4	1.7167249
126	0xbf5611d9	-0.83620983
127	0xbffe5a42	-1.9871294
128	0x3e4f38cb	0.20236509
129	0xbe346256	-0.17615637
130	0xbcb012e2	-0.021493379
131	0x3c61c1c5	0.013779108
132	0xbd14e0d6	-0.036347233
133	0x3f3ed942	0.7455026
134	0x3f4d945c	0.80304503
135	0xbf0e602e	-0.5561551
136	0x3dc27d68	0.094965756
137	0xbf8be047	-1.0927819
138	0x3f56da5e	0.8392695
139	0x3f67ca3b	0.90542954
140	0xbe970505	-0.29496017
141	0xbef1c3be	-0.47219652
142	0xbfb6257f	-1.4230193
143	0x3f53acf7	0.826858
144	0x3f510fe3	0.81664866
145	0xbe38436c	-0.1799447
146	0x3f3a3eb4	0.7275193
147	0x3ee31dff	0.44358823
148	0xbf4602fb	-0.773483
149	0xbde1b662	-0.11021115
150	0x3eb1ea7e	0.34749216
151	0x3f31ee51	0.69504267
152	0x40120759	2.2816985
153	0x3e0cb1df	0.13739727
154	0xbfba5659	-1.4557601
155	0xbe0de187	-0.13855563
156	0xbfe14b0e	-1.760103
157	0x3d44f5be	0.04808592
158	0xbe8e2cde	-0.27768606
159	0x3fa1cee6	1.2641265
160	0xbfe20a4e	-1.7659395
161	0x3fa3bfea	1.2792943
162	0x3f5fa6fe	0.87364185
163	0x3fa4ac25	1.2865034
164	0xbf9c79ca	-1.2224667
165	0x3fbc1d9b	1.4696535
166	0x3f8d602a	1.1044972
167	0xbd95a778	-0.07307333
168	0x3f21cbbc	0.632015
169	0x3f72ab86	0.94792974
170	0x3d96a469	0.073555775
171	0xbeed8137	-0.46387646
172	0xbfd8d083	-1.6938633
173	0xbf988834	-1.1916566
174	0xbf51bd62	-0.819296
175	0xbf47ade2	-0.779997
176	0xbd98c1c3	-0.07458832
177	0xbf096ec8	-0.53684664
178	0x3f9295b1	1.1451932
179	0x3f030068	0.51172495
180	0xbf82f818	-1.0231962
181	0x3d35ca9e	0.044382684
182	0x3ede8012	0.43457085
183	0xbe805981	-0.25068286
184	0xbf13c28c	-0.5771873
185	0xbe042795	-0.12905724
186	0x3f9d8a6e	1.230787
187	0xbeab5636	-0.3346421
188	0x3dc6ac60	0.09700847
189	0xbf59f655	-0.851415
190	0x3d24fde1	0.04028118
191	0x3f92ee29	1.1478931
192	0x3fbd7648	1.4801722
193	0x3f837aae	1.0271814
194	0xbf683468	-0.90704966
195	0x3f02ad46	0.51045644
196	0xbf8cf374	-1.1011796
197	0xbff551a4	-1.916554
198	0xbfac13c1	-1.3443528
199	0x3f810176	1.0078571
200	0xbf06567e	-0.52475727
201	0xbf17df36	-0.5932497
202	0xbef93149	-0.48670414
203	0x3f1ccc26	0.61249006
204	0x400d731a	2.2101502
205	0xbf4be946	-0.7965282
206	0xbe4775a4	-0.1947847
207	0xbf7177d8	-0.9432349
208	0xbf30ef9c	-0.69115615
209	0x3f4743b3	0.77837676
210	0x3ee408a2	0.44537836
211	0xbfb9523e	-1.4478223
212	0x3f8211ab	1.0161642
213	0x4005c72e	2.090282
214	0x3ee9fff2	0.45703083
215	0xbedfb279	-0.4369085
216	0xbfb101ff	-1.3828734
217	0xbd62b927	-0.055352356
218	0xbfb227fd	-1.3918453
219	0x3f51906b	0.8186099
220	0xbfba80bb	-1.4570535
221	0xbe71066c	-0.23537606
222	0xbf7ea9aa	-0.99477637
223	0x3fc8cd4f	1.5687655
224	0xbe1973dc	-0.14985603
225	0x3f4d3634	0.8016083
226	0xbf68f8ee	-0.91004837
227	0xbf06f3a0	-0.5271549
228	0xbf83ef8f	-1.0307482
229	0x3e837002	0.25671393
230	0x3f48c071	0.7841864
231	0x3f6ecb9b	0.9327943
232	0xbf59b3f8	-0.85040236
233	0xbf018490	-0.505929
234	0x3e266114	0.1624797
235	0x3e6fb53f	0.23408984
236	0xbef1e157	-0.47242233
237	0x3f1c3a43	0.610264
238	0x3eec62ab	0.46169028
239	0x3f6b342f	0.918765
240	0x3bf3ba40	0.007437974
241	0x3dcd39f7	0.100208215
242	0xc00bec69	-2.1863043
243	0x3ebd584f	0.36981437
244	0x3f06b13d	0.52614194
245	0xbf239b1f	-0.6390857
246	0xbea87e4d	-0.3290886
247	0x3ebe03a1	0.37112144
248	0x40194763	2.394982
249	0x3e4e5612	0.2015002
250	0x3f36c308	0.71391344
251	0x3fbbd838	1.467536
252	0xbf119d30	-0.56880474
253	0xbf889177	-1.0669392
254	0x3fac7254	1.347239
255	0x3ecc768c	0.39934194

outside_bias.weight f4 [4153, 1]
0	0xbf062fa8	-0.5241647
1	0x3f5a9264	0.85379624
2	0x3f671e3c	0.9028051
3	0x3f039ea4	0.5141394
4	0x3dfc3734	0.12315217
5	0x3f5f1a01	0.87149054
6	0x3ff7bb96	1.9354122
7	0x3eb5a2c5	0.35475746
8	0xbf04628d	-0.51712877
9	0xbf42a10f	-0.76027006
10	0x3e669baf	0.22520326
11	0xbf7bb6bd	-0.9832571
12	0xbf22e753	-0.6363422
13	0x3f943a98	1.1580381
14	0xbf15bd0d	-0.58491594
15	0xbee3f13e	-0.4451999
16	0x3fa82da4	1.3138928
17	0xbf22d57d	-0.6360701
18	0xbf5427b0	-0.8287306
19	0x3ffe615c	1.9873462
20	0x3de2aee2	0.110685125
21	0xbe0a1816	-0.1348575
22	0x3f0513f2	0.5198356
23	0xbf1bd81e	-0.60876644
24	0xbf1d5ef5	-0.6147302
25	0x3e89f5ce	0.26945347
26	0x3f024774	0.5089028
27	0x3f468ae5	0.77555686
28	0xbf7e2ab3	-0.99283904
29	0xbf18e02e	-0.5971707
30	0x3fab8f58	1.340312
31	0x3e604482	0.21901134
32	0xbfa12572	-1.2589552
33	0x400418fe	2.0640254
34	0xbe48c855	-0.1960767
35	0xbe38b50b	-0.18037812
36	0xc0041394	-2.063695
37	0x3e14df98	0.14538419
38	0x3ebc0ee1	0.36730102
39	0x3f5dff58	0.8671775
40	0x3d1b16fe	0.037863724
41	0xbf11d9d7	-0.5697302
42	0xbea7ca75	-0.3277165
43	0x3f0cc34d	0.54985505
44	0x3fa683cf	1.3008975
45	0xbe105779	-0.14095868
46	0xbe871599	-0.26383665
47	0x3e3972de	0.18110225
48	0xbdb6db92	-0.089285985
49	0x3f19dd16	0.60102975
50	0x3e40fbbd	0.1884603
51	0x3f296fa4	0.66185975
52	0x3f439d99	0.7641235
53	0xbed20047	-0.41015837
54	0x3f41418e	0.75490654
55	0x3f9973fb	1.198852
56	0xbf42e837	-0.7613558
57	0xbfbd497f	-1.4788054
58	0xbc85ba0d	-0.016324067
59	0x3eb8eac0	0.361166
60	0x3f1d245c	0.61383605
61	0xbf8d541f	-1.1041297
62	0x3f76c323	0.96391505
63	0xbf5b6b0f	-0.85710233
64	0xbe38830b	-0.18018739
65	0xbdbd65e2	-0.09247948
66	0x3f490ea4	0.78537965
67	0xbf525254	-0.8215687
68	0x3fc41bfb	1.5321039
69	0x3f0f4cc4	0.5597651
70	0xbeea0e8a	-0.45714217
71	0x3f3cacd5	0.7370122
72	0xbf057320	-0.5212879
73	0xbf172ce9	-0.590529
74	0xbecb5db7	-0.39719936
75	0x3f40085a	0.75012743
76	0xbf6a75c6	-0.9158596
77	0x3ff09f91	1.8798696
78	0x3f67b6a3	0.90513057
79	0x3de182d4	0.110112816
80	0x3f46c4f3	0.7764427
81	0x3f945b64	1.159039
82	0x3dd7f2d7	0.10544365
83	0x3f853f08	1.0409861
84	0x3eacfed4	0.33788168
85	0xbf44b4fd	-0.76838666
86	0xbf610af8	-0.8790736
87	0xbf51ecef	-0.82002157
88	0x3f2597f5	0.64684993
89	0x3f22acc7	0.6354489
90	0x4039ebc3	2.9050148
91	0x3e2b181d	0.16708417
92	0xbff15096	-1.8852718
93	0xbf9f519a	-1.2446778
94	0x3fcb1bc0	1.5867844
95	0x3ea76751	0.32696012
96	0x3f0bce8c	0.5461204
97	0xbd48bdd4	-0.04900916
98	0x400b9f9a	2.1816163
99	0xbf8cda66	-1.100415
100	0x3f9af15d	1.2104908
101	0xbdec5508	-0.11539656
102	0x3f18e3ff	0.59722894
103	0x3f1093fb	0.564758
104	0xbf1ec850	-0.620244
105	0xbf0f2195	-0.5591062
106	0xbf703e57	-0.93845123
107	0x3f35b94e	0.7098588
108	0xbf8651eb	-1.0493749
109	0x3fb2ed25	1.3978621
110	0xbfae3546	-1.3610008
111	0xbfa0b4db	-1.2555193
112	0x3fa15d4a	1.2606595
113	0x3f24d5b8	0.6438861
114	0x3db11cd0	0.08648074
115	0x400f56f4	2.2396822
116	0xbe8b6ee3	-0.27233037
117	0x3ba2590c	0.004954463
118	0x3f4377f2	0.763549
119	0xbe17dc5a	-0.14830151
120	0xbdaa06e7	-0.08302098
121	0x3f811613	1.0084862
122	0x3fa5e09d	1.2959172
123	0x3e95afa0	0.29235554
124	0x3fa48fee	1.2856424
125	0x3dfb780a	0.12278755
126	0xbea4e74a	-0.3220771
127	0x3f33e619	0.70272976
128	0x3fefdf19	1.8739959
129	0xbfe62941	-1.798134
130	0x3e8f1b13	0.27950343
131	0x3fb7c943	1.4358295
132	0xbf81fda3	-1.0155529
133	0x3db55881	0.088547714
134	0x3f31da21	0.69473463
135	0x3ee16bc5	0.44027534
136	0xbeeeae8b	-0.4661754
137	0x3d12951f	0.035786744
138	0x3fd1428f	1.6348437
139	0x3cccc23e	0.024994966
140	0x3f8210a3	1.0161327
141	0xbdd6ec32	-0.104942694
142	0x3fb2dd21	1.3973733
143	0x3fff996b	1.9968694
144	0xbf623499	-0.8836151
145	0x3fd97f20	1.699192
146	0x3fc7733f	1.5582045
147	0x3fd1dc4c	1.6395354
148	0x402999e4	2.6500177
149	0x3e2182d4	0.15772563
150	0x3e890a08	0.26765466
151	0xbf2da016	-0.67822397
152	0xbf1a8eba	-0.60374033
153	0xbf74cb4f	-0.95622724
154	0x3f36e3e2	0.7144147
155	0x3f3a3023	0.727297
156	0x3d4fd0f3	0.05073638
157	0x3f01ff1f	0.5077991
158	0xbf4bd2c8	-0.796185
159	0xbe5d11b2	-0.21588781
160	0x3fb216c1	1.3913194
161	0x3f04e8e2	0.5191785
162	0x3fd3f72c	1.6559806
163	0xbf0f8e58	-0.56076574
164	0xbf916730	-1.1359615
165	0x3e970282	0.294941
166	0xc02608e1	-2.594292
167	0xbf937ac9	-1.1521846
168	0xbee4a412	-0.44656426
169	0xbeea675a	-0.45781976
170	0x3e7358f3	0.237644
171	0xc01345f9	-2.3011458
172	0xbeb7d85e	-0.35907263
173	0xbe204e5b	-0.1565489
174	0x3f8fb904	1.1228337
175	0x3e2e540b	0.17024247
176	0x3d7fe8de	0.06247794
177	0x3e4bb39b	0.19892733
178	0xbf844400	-1.0333252
179	0x3f27ee4d	0.65597993
180	0x3fa0255b	1.25114
181	0x3f32a2bb	0.69779557
182	0x3fad14ad	1.3521935
183	0x3f9ca2b4	1.2237153
184	0xc013567f	-2.3021543
185	0xbf52ac4f	-0.8229417
186	0xbef41325	-0.47670856
187	0xbf023c5e	-0.50873363
188	0xc010ddf7	-2.2635477
189	0x3f2fc067	0.6865296
190	0x3ed5eec8	0.41783738
191	0xbf28c06b	-0.65918607
192	0xbec99462	-0.3937102
193	0x3f05ec8c	0.52314067
194	0x3f328058	0.6972709
195	0x3e547887	0.20749103
196	0x3f3ee4ed	0.74568063
197	0xbf689d90	-0.9086542
198	0xbd5ed7cd	-0.054405022
199	0x3eddc04f	0.43310782
200	0xbf38cc49	-0.72186714
201	0xbf712493	-0.9419643
202	0x3f084ac8	0.5323911
203	0xbf2305be	-0.63680637
204	0x3f0cfaa5	0.55069953
205	0xbe55e1e1	-0.20886947
206	0x3f9f6268	1.2451906
207	0x3e068a75	0.13138755
208	0x3eb7ccc8	0.35898423
209	0x3f13d9f3	0.5775444
210	0xbe352f17	-0.17693745
211	0x40185a8f	2.3805273
212	0x3f1c0a89	0.60953575
213	0xbf7091db	-0.9397256
214	0xbf12e640	-0.57382584
215	0xbebd73d6	-0.37002438
216	0x3fab44cd	1.3380371
217	0xbec85943	-0.391306
218	0xbf85faa7	-1.0467118
219	0xbed1721c	-0.4090737
220	0x3f0c10d4	0.5471318
221	0x3f36fa9c	0.7147615
222	0xbefb680d	-0.49102822
223	0xbfe5d102	-1.7954409
224	0x3f36fdef	0.7148122
225	0x3dbc6726	0.091993615
226	0x3f6770b2	0.90406334
227	0x3fb96735	1.4484621
228	0x3fed4f97	1.8539914
229	0x3db1c8ee	0.086809024
230	0x3f64a6a6	0.89316785
231	0x402b7c2a	2.6794534
232	0x3da081e8	0.07837278
233	0x3fef5594	1.8697991
234	0x3f419045	0.7561076
235	0xbf01a8ab	-0.5064799
236	0x3f654480	0.8955765
237	0x3fc3a298	1.5283995
238	0xc025bf56	-2.5898032
239	0xbf97eb82	-1.1868746
240	0xbe982d4f	-0.29722068
241	0x3fa666ac	1.3000083
242	0xbf00d470	-0.50324154
243	0xbf29c8ea	-0.66322196
244	0xbcdbf128	-0.02684839
245	0x3f032c8a	0.51239836
246	0xbd5e18a6	-0.054222725
247	0xbf5bbb78	-0.8583293
248	0xbe72dedd	-0.23717828
249	0x3ea327ce	0.31866306
250	0xbeda1f87	-0.42602178
251	0x3fb510fc	1.4145808
252	0xbe85c272	-0.26124913
253	0x401a80c7	2.41411
254	0x3f965049	1.1743251
255	0xbef79e14	-0.48362792
