model/word2vec_model_skipgram_neg.pth (torch, 68240 bytes, 2 tensors)

embedding_center.weight f4 [4153, 2]
00000000: f284 dd3e 63d6 21bf 86e3 f1bb 7bde 303f
00000010: 5043 a73f 7c4d e13f abe8 aa3e 84f8 85bf
00000020: f518 6c3e f57a 3bbf 8ed5 4dbf aa7a d33e
00000030: 5403 543e 9ca9 b1bf daef 1cbf 410e 9ebf
00000040: 20ab de3e 5ed0 9dbf 06de 213f b8bb 963f
00000050: c547 e2bf c42c 25bf 0027 1bbf 9561 063f
00000060: e9e6 853f eedf f03e 869c 783e 4b69 8fbf
00000070: 1d63 9c3e 595b f13f 64da bebf 4d77 f5bf
00000080: 0cac 253e 7755 e33e e541 eb3f 47f1 b9be
00000090: 63e5 5abf 4a25 2bbe b4d0 66be a7c7 993f
000000a0: a169 96bf 5245 14bf 1860 94be a92b 983e
000000b0: f3b8 92bf 9171 91bf 859b 343f c019 1d3e
000000c0: 9fb7 733e b518 fb3f a34c 94bf 02aa 47bf
000000d0: c48e f23d 6e71 2b3f e8b4 153f cd4a 8ebf
000000e0: a17b 123f ca59 01c0 b216 19c0 fd1d 4abc
000000f0: 6aa8 38bf 307e 96bf 96cb bd3f 9b76 33bf
00000100: 0f0c 123f 337d af3f b8cf f33f 9096 8d3f
00000110: a26f 2fbf 3686 b1bf d2f2 0c3e 3478 c53d
00000120: 9a7f 1ebf f4f1 e2bd a49f 2b40 c648 0cbe
00000130: 6a3f 99bf 087b 873f b161 543f 613b a4be
00000140: 4aab aa3f 5da3 77bf d634 6c3e 3f30 66bd
00000150: e712 b83f b426 89bf 70d8 a3bf 27ec 1bbe
00000160: d2f3 cb3e 24ef 1640 f462 923f 9774 0a3e
00000170: 962d 593f 81e4 3c3f b12a 49bf 6995 f13f
00000180: 235f 733e 8275 ad3d c86b 973e 5080 993f
00000190: 5988 90bf 40bd 203e e5ef f83e 3310 efbe
000001a0: d798 bf3e a9bf 0cbe 385a 4d3f 76d1 dbbe
000001b0: 946a 8d3f e8ec 9c3e 05e5 383f 5309 acbe
000001c0: 5bb3 c3be b08d 44bf 280a 6c3e 011c 59bf
000001d0: a6bf dabf e926 8e3f b71c 98be abfb 983f
000001e0: 56b9 ebbf 5f09 b53f 02c4 29c0 b460 40bf
000001f0: 9d59 e13e 590d b6bf 2e67 9e3f 41b3 f7bf
00000200: b72e 1d3f 31b8 113f 62a7 00bf d33d 763d
00000210: 2dd8 743f bb8f 8cbf 449c ce3e 44cc a3be
00000220: a143 90bf 8b0f 84bf 4c62 0640 7383 903e
00000230: d59e 343f 3a7d afbf ae2a 843f e267 94bf
00000240: 7ff3 8cbe 1850 13bf a5cc 66bf 4b70 4ebf
00000250: 49e9 61bf 3c86 e8bf 6010 b4be e880 afbe
00000260: 7b55 123f c447 cd3e 47d5 a63e fe0d 273f
00000270: f903 a23f 1bb1 82bf 6b91 9c3e ef53 46bf
00000280: 80f8 9dbf 897c 163f b0bf 8fbf 38f3 2c40
00000290: d233 a03f 146d d3bf 9032 16c0 0370 e53f
000002a0: 270b af3e fcb2 003e f454 39bf 7a3c 27bd
000002b0: 6a13 8ebf 0219 cfbc 2428 a03f 26d1 c4be
000002c0: 50dc 873e 005a 133e 9362 e03e 16fc 503f
000002d0: 6da6 f3bf 7f49 e2bd 989b 40be d2e7 c23f
000002e0: d0e4 593f 07a4 673f 7e2c aabe c379 20bf
000002f0: 20c9 65bf 4d63 e53e 8923 463f 5c7e 013f
00000300: d92e dcbe 1f9e 3fbf 3d13 52bf 7d95 8b3e
00000310: 0606 e33f 1564 49bf 4b58 81bf d4e4 d93f
00000320: f390 623e 681e f6bd c846 e63d e6f0 f2bc
00000330: 3665 6f3a 30c7 2abf 799f 333f 80cd c0bf
00000340: 726f d7be 54d6 2e3f a1c8 7c3f c817 ebbf
00000350: 5b3b 96bf 994a a33d 0122 69bd c2ac 673f
00000360: 3536 663f 03ac 4c3e 393b 48be ca52 193f
00000370: 3a2f 943e 4bbc ac3e 5a6a b73f a759 f6b9
00000380: 52a2 333f 277f 723f c210 6bba 4f63 ab3f
00000390: c938 7abe d3d8 23bf 2c35 d03e c1b7 43bf
000003a0: 0e35 ec3e 624b 923f 9cd7 85bf 39b4 e8bf
000003b0: eff2 8bbf 17f8 cc3f ba43 8b3f 209a b83f
000003c0: 0bef 87bf 9192 cf3f 997f 0dbf 834a 41bf
000003d0: add0 083f a8a9 4fbf df8d 933d 1fee 793f
000003e0: a73d 21bf 67ff 3abf f359 e33e b23d 443e
000003f0: 7804 79be 82c9 fc3d d4f2 6a3f 4e43 e63e
0.43265492 -0.63217753 -0.0073818592 0.6908948 1.3067417 1.7601771 0.33380637 -1.0466466
0.23056395 -0.7323449 -0.80403984 0.41304523 0.20704395 -1.3879886 -0.61303484 -1.23481
0.43489933 -1.2329214 0.63229406 1.1776037 -1.7678152 -0.6452143 -0.60606384 0.5249265
1.0461093 0.47045845 0.24278459 -1.1204008 0.30544367 1.8856002 -1.4910398 -1.9177033
0.16178912 0.44401142 1.8379484 -0.36316893 -0.85506266 -0.16713443 -0.22540551 1.2014054
-1.1750985 -0.57918274 -0.28979564 0.2972081 -1.1462692 -1.1362783 0.70549804 0.15341854
0.23800515 1.9616915 -1.1585888 -0.77993786 0.11843637 0.66969955 0.58479166 -1.1116577
0.5721989 -2.0211053 -2.3920102 -0.012336251 -0.7213198 -1.1757259 1.4827754 -0.7010285
0.5704965 1.3710083 1.9047766 1.1061573 -0.68529713 -1.3869083 0.13764504 0.096420676
-0.61913455 -0.11081305 2.6816187 -0.13699636 -1.1972477 1.0584421 0.82961565 -0.32076553
1.3333523 -0.9673365 0.2306703 -0.056198355 1.4380769 -1.0714936 -1.2800426 -0.15226804
0.39834458 2.358346 1.1436448 0.13521038 0.84835184 0.7378617 -0.78580767 1.8873721
0.2376676 0.084696785 0.29574418 1.1992283 -1.129161 0.15697193 0.48620525 -0.46692047
0.37421295 -0.13744988 0.8021579 -0.42933244 1.104815 0.30649495 0.72224456 -0.33600864
-0.38222775 -0.767787 0.2305075 -0.84808356 -1.7089736 1.1105624 -0.29709408 1.1951803
-1.8415935 1.4143485 -2.6525884 -0.7514756 0.44013682 -1.4222823 1.2375238 -1.9351579
0.61399406 0.5692168 -0.50255406 0.060117554 0.9564236 -1.0981363 0.40353596 -0.3199178
-1.1270639 -1.0317243 2.0997496 0.28225288 0.7055486 -1.3710091 1.0325525 -1.1594203
-0.27529523 -0.5754409 -0.9015601 -0.80640095 -0.8824659 -1.8165965 -0.35168743 -0.34278035
0.5716168 0.40093815 0.32584593 0.65255725 1.2657462 -1.0210298 0.30579695 -0.7747182
-1.2341461 0.58783776 -1.1230373 2.702345 1.2515814 -1.6517663 -2.346836 1.7924808
0.34188196 0.12568277 -0.72395253 -0.04082916 -1.1099675 -0.02528048 1.251225 -0.38440818
0.26535273 0.14389801 0.43825206 0.8163465 -1.9035164 -0.110491745 -0.18809354 1.5226996
0.85114765 0.9048466 -0.3323707 -0.62685794 -0.8976002 0.44802323 0.7739797 0.50583434
-0.43004492 -0.7485065 -0.82060605 0.27262488 1.7736213 -0.7866834 -1.010507 1.7022958
0.22125606 -0.12017518 0.11243969 -0.029655885 0.0009132208 -0.66710186 0.7016521 -1.5062714
-0.42077214 0.6829579 0.98743635 -1.8366632 -1.1736864 0.07973213 -0.056917194 0.9049798
0.89926463 0.19987492 -0.19553842 0.5989195 0.2894228 0.33737406 1.4329331 -0.00046987573
0.70169556 0.9472527 -0.00089670357 1.3389682 -0.24435724 -0.6400272 0.40665567 -0.7645226
0.46134228 1.1429255 -1.0456424 -1.818 -1.0933512 1.6013211 1.0880044 1.4422035
-1.0619825 1.6216604 -0.55272824 -0.7550432 0.53443414 -0.8111825 0.07204794 0.9762897
-0.629847 -0.73045963 0.44404563 0.1916416 -0.24318111 0.12343122 0.91776776 0.44973224

embedding_outside.weight f4 [4153, 2]
00000000: e7a1 81bf b61c 803e fc8c cabd f0e4 b1bf
00000010: d27d 55be a2e5 013d e902 fabd ad97 6d3f
00000020: d489 e5bf 3124 62bf afb8 15bf c99e 77bf
00000030: fa10 a13f eba0 613e c2bd 0c40 589b 493e
00000040: ce5b 50bf 8eb3 113e 2faa e33f 7f87 2b3f
00000050: b217 793e fb3f 383e 90f5 043f 24cb 0f3f
00000060: 9905 02bc 5ba9 7b3f e82b 65be 728a 42bf
00000070: 9085 913f f771 623e 95ad 02bf 911f f73f
00000080: 6b34 743e 2c8c 5ebf c97f 89be ae9f 8fbf
00000090: 704f a3bd 7741 a33e 42ea d33e 5da3 b4bf
000000a0: d36a 60bf db64 1fbe 8e79 8cbf 86ee 6dbe
000000b0: 3c9f 10c0 5825 0b3f 3f56 aa3f d7bc 1340
000000c0: eaa7 02c0 9824 92bf 9962 9f3f ecf3 833f
000000d0: 4614 3c3f 36e8 1bc0 d1cb b73f 0c1e 933f
000000e0: 3f6e 9bbe ee8a 05c0 3990 433f 5eaf 33c0
000000f0: 67d7 c0be bf61 85bf d8a1 243f a2dc e9be
00000100: 92a5 423d a231 0abf 47a6 5ebe a21a 29bf
00000110: 69b7 df3f 0924 f13d df2e 55bf d4db 5a3f
00000120: 87b3 bd3e e7ef f5bd 9edc 0540 6e52 a03e
00000130: 9679 3dbe a3f0 0cc0 f3e8 cc3f e70d f7be
00000140: b70b 193f a14e 763e 1a91 e93e 2159 b1bf
00000150: f5e5 893f 49e2 943e 1ebc 1abd 19c6 ecbf
00000160: 96f8 5b3e c963 dabd 0de4 88bf 018f a1bd
00000170: 72a7 d73e 7055 363f a497 a23f 98e5 a4be
00000180: f0c1 e93e 08b8 8e3f 0be7 1ec0 b949 45bf
00000190: dcdf 3abe 1217 7b3c 1d84 1940 a1f6 813f
000001a0: 4908 613f dd2e 9a3f 997f 4e3f dbdf 0fbf
000001b0: 1d26 953b d75e 0ebf 845e 303e 147b a93f
000001c0: adc9 b3be 7eaf 5bbf c094 c03e d45c 973d
000001d0: 5251 60be 8f28 c63e 3482 7dbe a7f1 c7bd
000001e0: 678d 0fbe addf 60bf 222e aebf e680 843e
000001f0: edfa d83e f47b 6cbf f86b 6c3f 77a8 2b3f
00000200: 683b c2be 7a6d a2bf 467a d8be fefc 3d3f
00000210: e29d 59bf 16e7 99bd 6099 d8bf b50d 8e3e
00000220: d836 c33f 13fa acbe b332 7a3e 3e1f 983f
00000230: a406 863f 4515 16be 8fb4 883f 4598 e03f
00000240: 2739 d0bf c1f0 83bf 9a94 e3bf 7d2b 403f
00000250: 30ce 8ebf c28f 55bf 38cf ef3e 796e f03e
00000260: c522 2c3e a20f d4bf 8dfd 2dbf da85 163d
00000270: f1c2 aebf 9c5b 923f ab29 cabd dc38 ad3d
00000280: 8e43 ef3d e3d0 253f f19b c63c c5f2 92bf
00000290: c05c 1e3f 1caa 51bf 1977 38be 7067 773d
000002a0: 4eba 363f 7f00 afbe d8bf 0cbf abaf a5bf
000002b0: 779e 30bf 0401 073f 39a5 bb3f bd77 12bf
000002c0: e8c2 243f aef0 733f de86 e1bf 3f47 9f3f
000002d0: 01f8 6b3f 0ab2 9d3d 7ac2 343e a672 b13c
000002e0: 645c 2f3e 565e 0c3f c571 2c3f 62b4 9d3f
000002f0: b857 853f d513 debe e13d 933f 4b7a 7d3f
00000300: 38f7 e3bf 8337 1d3d cbcf ac3f 72aa c53d
00000310: ab10 c23f acb1 98bc ea87 a83f e2a7 143f
00000320: ed91 6fbc b224 43bf c31f af3e e848 1440
00000330: 715d 1f40 a978 babf 4049 febf 6af3 cd3e
00000340: 2fc6 933f fc67 073f 2f54 b5bf 7cda a9be
00000350: a2e4 aebf d732 9a3e 25c4 e93f 6b15 ef3e
00000360: 56b7 ffba 4cbb 82be 3e39 56bf 6acd 9f3c
00000370: e35a d1bf 8a09 fe3d 8787 a6bf e799 e5be
00000380: c26f 95bf f023 313f a859 b33f 7242 553f
00000390: 8d6f 66bf 20ac 823f c934 793e 5fd5 34bf
000003a0: ff74 4a3f 6d76 003f 9349 783e f8e3 ef3e
000003b0: 4714 a1be 6a6c 753e 4a36 5abe 698e 833e
000003c0: ff96 0b3f 302d a13e 7707 dcbe 2b8c 96be
000003d0: 769b 8abf 7159 713f 9d67 163f 73be 67bf
000003e0: 3825 0abf 15fe 50bf 539d 2dbf c129 e9bf
000003f0: 36b3 46bf b52a 5cbf fede e43e 8210 cd3d
-1.0127534 0.25021905 -0.09890172 -1.3897991 -0.20848778 0.031713136 -0.12207586 0.92809564
-1.7932687 -0.88336474 -0.5848493 -0.9672666 1.2583306 0.22034042 2.199082 0.19688165
-0.8139008 0.14228651 1.7786311 0.67003626 0.24325445 0.17993157 0.519372 0.56169343
-0.007935905 0.9830529 -0.2238003 -0.759925 1.1368885 0.22113787 -0.51046115 1.9306508
0.23848121 -0.86932635 -0.26855305 -1.1220605 -0.07974136 0.31885883 0.41389662 -1.4112355
-0.87663 -0.15565817 -1.0974596 -0.2323552 -2.259719 0.5435386 1.330757 2.3084009
-2.0414987 -1.1417418 1.2451965 1.0308814 0.73468435 -2.436048 1.4359075 1.1493545
-0.3035755 -2.0866046 0.7639194 -2.8075786 -0.3766434 -1.0420455 0.64309454 -0.45676142
0.04752118 -0.53981984 -0.21743117 -0.66056263 1.7477847 0.11774451 -0.83274645 0.8549168
0.3705103 -0.12008648 2.0915904 0.3131289 -0.18503413 -2.2021873 1.600859 -0.48252794
0.597835 0.24053432 0.45618516 -1.3855325 1.0773302 0.29078892 -0.03777706 -1.8497955
0.21481547 -0.10663564 -1.0694596 -0.07888604 0.42119938 0.7122412 1.2702527 -0.32206416
0.45655775 1.1149912 -2.4828517 -0.77065617 -0.18249458 0.015325325 2.3986886 1.015339
0.8790327 1.2045552 0.8066345 -0.5620095 0.0045516626 -0.55613464 0.17223555 1.3240685
-0.35114804 -0.85814655 0.37613487 0.073907524 -0.21906021 0.3870282 -0.247567 -0.097628884
-0.14018784 -0.878413 -1.3607829 0.25879592 0.4237894 -0.9237664 0.9235225 0.6705393
-0.37935948 -1.268966 -0.42280787 0.7421416 -0.85006535 -0.07514779 -1.6921806 0.27744833
1.5251112 -0.3378454 0.24433403 1.1884534 1.0470777 -0.14656551 1.0680102 1.7546469
-1.6267442 -1.0307847 -1.7779725 0.7506636 -1.1156673 -0.8342248 0.46837783 0.46959284
0.16810139 -1.6567271 -0.6796501 0.036748745 -1.3653241 1.1434207 -0.09871229 0.08458111
0.11682807 0.6477186 0.02424428 -1.1480337 0.61860275 -0.8190019 -0.18014182 0.06040138
0.7137803 -0.34180066 -0.5498023 -1.2944235 -0.689918 0.52735925 1.4659797 -0.57213956
0.64359903 0.95289123 -1.7619283 1.2443618 0.921753 0.07699974 0.17652312 0.021661114
0.17125088 0.54831445 0.673611 1.2320673 1.0417395 -0.43374506 1.1503259 0.9901473
-1.780982 0.03838302 1.3500913 0.096516505 1.5161337 -0.018639408 1.3166478 0.5806867
-0.014622194 -0.7622787 0.3420392 2.3169498 2.4900782 -1.4568073 -1.9866104 0.40224773
1.1544856 0.5289304 -1.4166316 -0.33174503 -1.3663523 0.30116913 1.8262984 0.46696028
-0.0019509594 -0.2553352 -0.83681095 0.019507129 -1.6355861 0.12404163 -1.301011 -0.4484398
-1.1674731 0.6919546 1.4011736 0.8330451 -0.90013963 1.0208778 0.24336542 -0.7063808
0.7908477 0.50180703 0.24246816 0.46853614 -0.31460783 0.23967138 -0.21309772 0.25694588
0.54527277 0.31479788 -0.42974445 -0.29403815 -1.0828693 0.942771 0.5875185 -0.9052498
-0.5396304 -0.816377 -0.6781818 -1.8215867 -0.77617204 -0.86002666 0.4470138 0.10012914
