app/word2vec_model_skipgram.pth (torch, 68216 bytes, 2 tensors)

embedding_center.weight f4 [4153, 2]
0	0xbe9d0d04	-0.30673993
1	0x3e81ba67	0.25337526
2	0xbe9c7324	-0.30556595
3	0x3e81b59e	0.25333875
4	0xbe9cc3b5	-0.30618063
5	0x3e81b1c6	0.25330943
6	0xbe9cccbf	-0.3062496
7	0x3e81238a	0.25222427
8	0xbe14898a	-0.14505592
9	0x3e26a679	0.16274442
10	0xbe9cc9dc	-0.30622756
11	0x3e81b2b9	0.25331667
12	0xbdfe669c	-0.12421915
13	0x3deada7e	0.11467455
14	0xbf62dac9	-0.8861509
15	0xbf0738eb	-0.52821225
16	0xbd1eb22a	-0.03874413
17	0x3d63c8f9	0.055611584
18	0xbe9cb373	-0.3060566
19	0x3e81977b	0.25310883
20	0xbe9ca185	-0.3059198
21	0x3e81ae9a	0.25328523
22	0xbf72ebb6	-0.94890916
23	0xbd9dc1e4	-0.07702997
24	0xbe9a8189	-0.30176952
25	0x3e0e73cb	0.13911359
26	0xbe9c5eb0	-0.3054099
27	0x3e813fc9	0.25243977
28	0x3e62f8f2	0.22165278
29	0xbd4a5591	-0.04939801
30	0xbe84704a	-0.2586692
31	0x3e426573	0.18984012
32	0xbe9cbaa8	-0.30611157
33	0x3e81b533	0.25333557
34	0xbf2b4896	-0.6690763
35	0x3e4396fe	0.19100568
36	0xbe9cbcaa	-0.3061269
37	0x3e81b4bd	0.25333205
38	0xbe369547	-0.17830382
39	0x3e76031c	0.24024624
40	0xbe9cb390	-0.30605745
41	0x3e81aedd	0.25328723
42	0xbeba7ecb	-0.3642486
43	0xbf20e31b	-0.62846535
44	0xbe2d3665	-0.16915281
45	0x3e471ef7	0.19445406
46	0x3ed5d98b	0.41767535
47	0xbd4f9ff5	-0.050689656
48	0xbe9cba99	-0.30611113
49	0x3e81b3b7	0.25332424
50	0xbdcceee7	-0.100065045
51	0x3e2ad194	0.1668151
52	0x3ccee655	0.025256315
53	0x3dee7857	0.11644047
54	0xbe9cbe89	-0.30614117
55	0x3e81a991	0.2532468
56	0xbe9d473c	-0.3071841
57	0x3e789975	0.24277289
58	0xbe1682fa	-0.14698401
59	0x3e2886df	0.16457699
60	0x3d7331b5	0.059373576
61	0x3e241698	0.16024244
62	0xbe4ccca9	-0.19999947
63	0x3dff084b	0.12452754
64	0xbf164e66	-0.58713377
65	0x3e8f7aaa	0.28023273
66	0xbd4c45ae	-0.04987114
67	0x3f1e95c3	0.6194727
68	0xbe9c9b23	-0.3058711
69	0x3e81aaa4	0.253255
70	0x3e167c06	0.14695749
71	0x3dea79e2	0.114490286
72	0xbe78e793	-0.24307089
73	0x3e67676b	0.22598045
74	0x3e371de3	0.17882495
75	0xbee15d91	-0.44016698
76	0xbe84c693	-0.2593275
77	0x3e4cd93d	0.20004745
78	0xbe0a6e93	-0.13518743
79	0x3e4487aa	0.19192377
80	0xbec08095	-0.375981
81	0x3ebe21c0	0.37135124
82	0x3d915290	0.07095826
83	0x3d87a230	0.06622732
84	0xbdca09e4	-0.09865168
85	0x3df5dba4	0.12004784
86	0xbe7c933b	-0.24665539
87	0xbd96f3f0	-0.07370746
88	0xbe623d7a	-0.22093764
89	0xbea12d32	-0.31479794
90	0xbe707c07	-0.23484813
91	0x3dd25e55	0.10271899
92	0xbc592faa	-0.013255993
93	0x3f0dd58c	0.5540397
94	0x3fa76314	1.3077111
95	0x3ecbf879	0.39838007
96	0xbe5f09f8	-0.21781147
97	0xbf043f6d	-0.5165928
98	0xbdf0440a	-0.117317274
99	0x3e658208	0.22412884
100	0xbe2914a3	-0.16511779
101	0x3e5f66dc	0.21816581
102	0xbe646644	-0.22304636
103	0x3df942d3	0.12170949
104	0x3ef083af	0.46975467
105	0xbe9c41cf	-0.30518958
106	0xbf08c787	-0.53429455
107	0xbfca366d	-1.579786
108	0x3de06722	0.10957171
109	0x3f0fb86a	0.5614077
110	0xbe263190	-0.16229844
111	0x3da81ece	0.082090005
112	0xbe1751b5	-0.14777263
113	0x3e26ac24	0.16276604
114	0xbe207467	-0.15669404
115	0x3d9f0885	0.07765297
116	0x3f841560	1.0319023
117	0xbf4158d8	-0.7552619
118	0xbe97be9d	-0.29637614
119	0xbdcc5b4f	-0.09978353
120	0x3e81634c	0.2527107
121	0x3daaeb35	0.083456434
122	0xbeb18ccd	-0.34677735
123	0x3e68108c	0.22662562
124	0xbea8cbc0	-0.3296795
125	0x3e81b2af	0.25331637
126	0xbe833262	-0.25624377
127	0x3e83ef06	0.25768298
128	0xbe9cc25b	-0.3061703
129	0x3e81b45e	0.25332922
130	0xbe7c5734	-0.2464264
131	0x3e27a3a1	0.16371013
132	0xbe47e1c8	-0.19519722
133	0x3d476900	0.04868412
134	0xbebadf96	-0.36498708
135	0x3d3417c6	0.043967985
136	0xbf63a443	-0.8892252
137	0x3d0461eb	0.032319944
138	0xbe7f6d32	-0.24943998
139	0x3e8ae8a7	0.27130625
140	0xbe37c36e	-0.17945644
141	0x3e0775d6	0.13228545
142	0xbf534d82	-0.8254014
143	0x3e68a246	0.22718152
144	0xbe9cfa92	-0.3065992
145	0x3e80eb3a	0.25179464
146	0xbdef5bf5	-0.11687461
147	0xbc44dbaa	-0.012015263
148	0xbe7a8d97	-0.24468075
149	0x3dcefb9e	0.10106586
150	0xbe9cbf95	-0.30614915
151	0x3e81b38f	0.25332305
152	0xbe9c222d	-0.30494824
153	0x3e81a6ed	0.25322667
154	0xbe9cbd34	-0.306131
155	0x3e81b51f	0.25333497
156	0xbe9cc0f3	-0.3061596
157	0x3e81693f	0.2527561
158	0xbf01924f	-0.50613874
159	0x3d27df1e	0.040984266
160	0xbe11fbe5	-0.14256246
161	0x3e409478	0.18806636
162	0xbe9d7b1e	-0.30757993
163	0x3e7df8ef	0.24801992
164	0xbe9cc93f	-0.3062229
165	0x3e81b508	0.25333428
166	0xbeafd9cd	-0.34345856
167	0x3eabea48	0.3357718
168	0xbe6763e2	-0.22596696
169	0x3e44a8eb	0.19205062
170	0xbe9cc093	-0.30615672
171	0x3e81b23c	0.25331295
172	0xbe9cb52d	-0.30606976
173	0x3e81b74d	0.2533516
174	0xbe329662	-0.17440179
175	0x3e6cce71	0.23125626
176	0xbe9cbec2	-0.30614287
177	0x3e81b0f2	0.2533031
178	0xbebb678a	-0.36602432
179	0xbea59553	-0.32340488
180	0x3e595f9d	0.2122788
181	0xbf6d2c99	-0.92646176
182	0xbe42ca0c	-0.19022387
183	0x3e78931d	0.2427487
184	0xbe9cb765	-0.3060867
185	0x3e818108	0.25293756
186	0xbe8f8847	-0.2803366
187	0x3e85fc42	0.2616902
188	0xbe07d903	-0.13266377
189	0x3e800b27	0.2500851
190	0xbe81c4d1	-0.25345472
191	0x3e3804e6	0.17970619
192	0xbe9ca823	-0.30597028
193	0x3e81af00	0.25328827
194	0xbeb9de9b	-0.36302647
195	0x3e350765	0.17678602
196	0xbe963390	-0.29336214
197	0x3e3e7323	0.18598609
198	0xbe0e0e65	-0.13872679
199	0x3e4db329	0.20087875
200	0xbe99b6d1	-0.3002229
201	0x3e09ee79	0.13469876
202	0xbe0e27e8	-0.1388241
203	0xbe4c2162	-0.1993461
204	0xbe9cc270	-0.30617094
205	0x3e81b6d9	0.25334814
206	0xbea2bc59	-0.31784323
207	0x3f76c284	0.9639056
208	0xbde591c0	-0.1120944
209	0x3dd455c0	0.10367918
210	0x3e95c348	0.2925055
211	0x3d5847d3	0.052802872
212	0xbe44d8bb	-0.19223301
213	0x3d9763f0	0.073921084
214	0xbe9cba85	-0.30611053
215	0x3e81a551	0.2532144
216	0x3e3069c5	0.17227848
217	0x3dd37350	0.103247285
218	0x3f9c4b90	1.221056
219	0x3e887db8	0.26658416
220	0xbe46b945	-0.19406612
221	0x3e0519a5	0.12998064
222	0xbea6fae0	-0.32613277
223	0xbf0ed4fd	-0.55793744
224	0xbe9c4bf3	-0.30526695
225	0x3e819aa1	0.25313285
226	0xbe3b5fd6	-0.18298277
227	0x3e4437b9	0.19161882
228	0xbdf94774	-0.12171832
229	0x3e0a304c	0.13494986
230	0xbe9df0c4	-0.30847752
231	0x3e2840fc	0.1643104
232	0xbe8b01ca	-0.27149802
233	0x3e2606dd	0.16213556
234	0xbed23835	-0.41058508
235	0x3f3500b8	0.7070422
236	0xbe4cb6ca	-0.19991603
237	0x3cc737c1	0.024318578
238	0xbe89d04f	-0.2691674
239	0x3d391095	0.04518183
240	0xbe9d88c0	-0.30768394
241	0x3df44cc8	0.11928707
242	0xbe2f9bed	-0.17149325
243	0x3e475da7	0.1946932
244	0xbe9d5a09	-0.30732754
245	0x3e80c084	0.25146878
246	0xbe9cc141	-0.3061619
247	0x3e81b41d	0.25332728
248	0xbea090d3	-0.31360492
249	0xbdeb597c	-0.11491677
250	0xbe9cc1b0	-0.30616522
251	0x3e81b435	0.253328
252	0xbd8e3030	-0.06942785
253	0x3ff972a4	1.948811
254	0xbdc76152	-0.09735359
255	0x3e02e177	0.1278132

embedding_outside.weight f4 [4153, 2]
0	0x3f65c096	0.8974699
1	0x3e090292	0.13379887
2	0xbe13c186	-0.14429292
3	0xbeb6be11	-0.35691884
4	0xbf43166f	-0.76206106
5	0x3f420f39	0.7580448
6	0x3eb372ca	0.35048515
7	0x3f530768	0.82433176
8	0x3d84a973	0.064776324
9	0x3f9b2940	1.2121964
10	0x3f119f50	0.56883717
11	0xc02029c8	-2.5025501
12	0xbf895326	-1.07285
13	0x3f49a292	0.7876369
14	0xbeb1dbeb	-0.34738097
15	0xbf58d04d	-0.8469284
16	0x3f4b57cc	0.7943084
17	0xbfa640e2	-1.2988551
18	0xbf7286dd	-0.94737035
19	0x3eba2291	0.36354497
20	0xc021cd5d	-2.5281594
21	0x3f56f3fa	0.8396603
22	0x3fd4a9ae	1.6614282
23	0x3fed63e5	1.854611
24	0xbf6608e8	-0.8985734
25	0x3f95e53a	1.1710579
26	0x3e13f5e0	0.14449263
27	0xbf482211	-0.7817698
28	0xbf8164e5	-1.0108916
29	0xbfaba4ac	-1.3409629
30	0x3f25855c	0.64656615
31	0x3f4b5408	0.79425097
32	0x3e95a28d	0.2922558
33	0x3ec1794f	0.37787864
34	0xbfd9c083	-1.7011875
35	0xbe715a5a	-0.23569623
36	0x400fc943	2.246659
37	0xbff7c55a	-1.9357102
38	0x3e635aea	0.2220265
39	0xbfb82581	-1.4386445
40	0xbee5ea7f	-0.4490547
41	0xc0135943	-2.302323
42	0x3f6e126c	0.9299686
43	0x3fb2c41f	1.3966101
44	0xbf0d8d0b	-0.5529334
45	0xbf670754	-0.90245557
46	0x3e97bff5	0.2963864
47	0xbf66714d	-0.90016633
48	0xbf784c7f	-0.96991724
49	0xbf662ffd	-0.89916974
50	0xbe9c8b72	-0.30575138
51	0xbf480e72	-0.7814704
52	0xbf488647	-0.7832989
53	0xbdab7b50	-0.08373129
54	0xc001a0f7	-2.0254495
55	0xbf08799a	-0.5331055
56	0x3d1865ea	0.037206568
57	0xbf1a469b	-0.60263985
58	0xbcede76a	-0.02904101
59	0x3f5369d7	0.82583374
60	0xbfc5bf97	-1.5449094
61	0x3e39df48	0.18151581
62	0xbfcbde2e	-1.5927179
63	0x3ef7fd92	0.48435646
64	0xbf6122a7	-0.879435
65	0x3f31d364	0.6946318
66	0xbebabd41	-0.36472514
67	0x3ec7014c	0.38868177
68	0x3f7e2250	0.99271107
69	0xbefdc0cf	-0.49561164
70	0xbf2dc2bd	-0.6787527
71	0xbea1d2de	-0.3160619
72	0xbe8ff4cb	-0.2811645
73	0x3f616c06	0.88055456
74	0xbfbdc66d	-1.482618
75	0x3f0daa13	0.5533764
76	0x3f8bfea6	1.0937088
77	0xbf0a6cc7	-0.5407223
78	0x3f4c0816	0.7969984
79	0x3e4c467a	0.1994876
80	0x3f179e83	0.59226245
81	0xbf70ee12	-0.94113266
82	0x3ea77bb1	0.32711557
83	0xbf7d5ee8	-0.9897294
84	0xbe7315f3	-0.23738842
85	0x3fafac93	1.372454
86	0x3f0d19cd	0.55117494
87	0x3f4eceea	0.80784476
88	0x3fc6b40f	1.55237
89	0xbeabff51	-0.33593228
90	0xbecdeed8	-0.40221286
91	0x3d2f0d06	0.04273703
92	0x3fa9835c	1.3243213
93	0x3fb3b23a	1.4038765
94	0xbfce4603	-1.6115116
95	0xbf6a2662	-0.9146482
96	0x3f062353	0.5239765
97	0x3f9a1a42	1.2039263
98	0x3e9eeada	0.31038553
99	0xbf12dd63	-0.5736906
100	0xbf2d3bed	-0.67669564
101	0xbf0befa5	-0.54662544
102	0xbed2f453	-0.4120203
103	0xbfd9c747	-1.701394
104	0xbfaadc60	-1.3348503
105	0xbf981a1e	-1.188297
106	0xbe216ba9	-0.15763725
107	0x3fc4b0ec	1.5366492
108	0x3e41a84c	0.18911856
109	0x3e818ed7	0.2530429
110	0xbdfb387f	-0.12266635
111	0x3fade122	1.358433
112	0xbfd58be2	-1.6683314
113	0x3fa1f2fe	1.265228
114	0x3eac8fe3	0.33703527
115	0x3decbab2	0.11559047
116	0xbf42ec94	-0.7614224
117	0x3e7fda40	0.249856
118	0xbd1767cf	-0.036964234
119	0x3f8de846	1.1086509
120	0x3fbf7ee7	1.4960603
121	0xbd3d3680	-0.046194553
122	0x3f07a748	0.52989626
123	0x3f0b3e59	0.5439201
124	0xbeeb53a1	-0.4596224
125	0x3e58f006	0.21185312
126	0x3eb37fbe	0.35058397
127	0xbfae802d	-1.3632866
128	0xbf8a2f91	-1.0795766
129	0x3fdcd3c9	1.7252132
130	0xbe4a94e0	-0.19783354
131	0x3ec6bc47	0.3881552
132	0xbf37af60	-0.71751976
133	0x3fdc0cc0	1.7191391
134	0x3eba105e	0.36340612
135	0xbf9064a1	-1.128071
136	0xbf026060	-0.50928307
137	0xbfb26a45	-1.3938681
138	0xbf438a6f	-0.7638311
139	0x3f304573	0.6885597
140	0xbf005383	-0.5012743
141	0x3f57744d	0.84161836
142	0xbf342e12	-0.703828
143	0xbf17b609	-0.5926214
144	0xbf8a214f	-1.0791415
145	0x3f60f30d	0.87870866
146	0x3f5b13cb	0.85577077
147	0x3f671717	0.9026961
148	0xbfda3b3b	-1.7049326
149	0xc00af118	-2.1709652
150	0xbf82a36c	-1.0206122
151	0x3f93a2d3	1.1534065
152	0xbdf7faa4	-0.12108353
153	0xc0367ef1	-2.851498
154	0x3f82f058	1.0229597
155	0x3f0405f5	0.5157159
156	0x3e66cec7	0.22539817
157	0x3ec03b8f	0.3754544
158	0x3f29c187	0.66310924
159	0xbe6a04d0	-0.22853398
160	0x3efe30f6	0.4964673
161	0x3d96f84b	0.07371577
162	0xbf81a0cc	-1.0127196
163	0xbfc35e86	-1.5263221
164	0xbf2ce9ed	-0.6754444
165	0xbfd619e4	-1.6726651
166	0x3f998a25	1.1995283
167	0xbf3f6e07	-0.74777263
168	0xbee8299a	-0.4534424
169	0xbf1ff694	-0.62485623
170	0xbeafdd73	-0.3434864
171	0x3e0f2ae1	0.13981201
172	0xbf8dcc48	-1.1077967
173	0xbf5f5573	-0.8723976
174	0xc00e9990	-2.2281227
175	0x3fbf7dcd	1.4960266
176	0x3fdb569d	1.7135807
177	0xbe80035c	-0.25002563
178	0x3e8b0ed4	0.2715975
179	0xbf35c38f	-0.71001524
180	0x3f95369b	1.1657289
181	0xbf3937f7	-0.7235102
182	0xbef7e246	-0.4841482
183	0x3f86b5da	1.0524247
184	0xbe0684a6	-0.13136539
185	0xbf88d19b	-1.0688967
186	0x3e81c1ba	0.25343114
187	0x3ec65a5e	0.3874082
188	0x3f13c7b0	0.57726574
189	0x3f45f2df	0.77323717
190	0xbe62f7d6	-0.22164854
191	0xbf7e7fc7	-0.9941372
192	0xbf2dcf2b	-0.6789424
193	0x3fd8cb8b	1.6937116
194	0x3f8e8e1e	1.1137121
195	0x3f4c26c4	0.7974665
196	0xbf12a677	-0.57285255
197	0x3dacbe27	0.08434706
198	0x3f649bb2	0.8930007
199	0xbece8a11	-0.4033971
200	0x3f8dffcf	1.1093692
201	0xbf1e17d5	-0.61755115
202	0xc0370d98	-2.8602047
203	0xbe4f6301	-0.2025261
204	0xbf817891	-1.0114919
205	0xbf6fb236	-0.93631303
206	0x3fc2db50	1.5223179
207	0x3f93013e	1.1484754
208	0x3f81ab81	1.0130464
209	0xbdf8e69c	-0.1215336
210	0x3d6b6295	0.057467062
211	0x3eb87b45	0.36031547
212	0x3ee3a9e4	0.44465554
213	0x3e795af3	0.243511
214	0x3ece3f16	0.40282506
215	0x3f1c2073	0.60987014
216	0xbeadfa30	-0.3397994
217	0x3ea797e6	0.32733077
218	0x3d3ff13c	0.04686092
219	0xbf3169ab	-0.6930186
220	0xbea0d796	-0.3141448
221	0xbb996601	-0.0046813493
222	0x3f82e643	1.022652
223	0x3ca6c5f0	0.020358056
224	0x3fb36084	1.4013829
225	0x3f740eb9	0.95334965
226	0xbf5489ca	-0.8302275
227	0xbe280fd7	-0.16412292
228	0x3db2aac2	0.08723976
229	0x3d540fc6	0.051772855
230	0x3fa6e90b	1.3039869
231	0x3f4869f0	0.7828665
232	0x3f70c4c8	0.94050264
233	0x3ff04c37	1.8773259
234	0x3f024034	0.50879216
235	0xbf22238c	-0.6333549
236	0xbeee3b63	-0.46529683
237	0xbf9a178e	-1.2038438
238	0x3d78daa0	0.060755372
239	0x3e04f76d	0.1298501
240	0x3ffe33be	1.985954
241	0x4031af4a	2.7763238
242	0xbf3df4f8	-0.7420192
243	0xbdeeae7f	-0.11654376
244	0xbe2e20b5	-0.17004664
245	0xbffc402a	-1.9707081
246	0xbe963096	-0.29333943
247	0x3f1595c8	0.58431673
248	0x3e5f864a	0.21828571
249	0xbe876101	-0.26441196
250	0xbf1d68b6	-0.614879
251	0xbea95bd4	-0.33077872
252	0xbf083fbe	-0.5322226
253	0x3ee7c3df	0.45266625
254	0x3ef27ab2	0.47359234
255	0x3fbb1f72	1.4618971
